…
Average actions of items: 16.403768283612923
The number of inters: 198502
The sparsity of the dataset: 99.92665707018277%
Remain Fields: ['user_id', 'item_id', 'timestamp']
Thu 05 Mar 2026 17:38:11 INFO  [Training]: train_batch_size = [1024] train_neg_sample_args: [{'distribution': 'none', 'sample_num': 'none', 'alpha': 'none', 'dynamic': False, 'candidate_num': 0}]
Thu 05 Mar 2026 17:38:11 INFO  [Evaluation]: eval_batch_size = [2048] eval_args: [{'split': {'LS': 'valid_and_test'}, 'order': 'TO', 'group_by': 'user', 'mode': {'valid': 'full', 'test': 'full'}}]
Thu 05 Mar 2026 17:38:11 INFO  IGTMRec(
  (item_embedding): Embedding(12102, 256)
  (img_feat): Embedding(12102, 512)
  (text_feat): Embedding(12102, 768)
  (img_trans): Sequential(
    (0): Linear(in_features=512, out_features=256, bias=True)
    (1): LeakyReLU(negative_slope=0.01)
    (2): Linear(in_features=256, out_features=256, bias=True)
  )
  (text_trans): Sequential(
    (0): Linear(in_features=768, out_features=256, bias=True)
    (1): LeakyReLU(negative_slope=0.01)
    (2): Linear(in_features=256, out_features=256, bias=True)
  )
  (LayerNorm): LayerNorm((256,), eps=1e-12, elementwise_affine=True)
  (dropout): Dropout(p=0.4, inplace=False)
  (IGTMRec_layers): ModuleList(
    (0-2): 3 x IGTMRecLayer(
      (LayerNorm): LayerNorm((256,), eps=1e-12, elementwise_affine=True)
      (dropout): Dropout(p=0.4, inplace=False)
      (ffn): FeedForward(
        (w_1): Linear(in_features=256, out_features=1024, bias=True)
        (w_2): Linear(in_features=1024, out_features=256, bias=True)
        (activation): LeakyReLU(negative_slope=0.01)
        (LayerNorm): LayerNorm((256,), eps=1e-12, elementwise_affine=True)
        (dropout): Dropout(p=0.4, inplace=False)
      )
      (Model): MixerModel(
        (layers): ModuleList(
          (0-1): 2 x Block(
            (mixer): Mamba2(
              (in_proj): Linear(in_features=256, out_features=1288, bias=False)
              (conv1d): Conv1d(768, 768, kernel_size=(4,), stride=(1,), padding=(3,), groups=768)
              (act): SiLU()
              (norm): RMSNorm()
              (out_proj): Linear(in_features=512, out_features=256, bias=False)
            )
            (norm_mixer): LayerNorm((256,), eps=1e-05, elementwise_affine=True)
            (channel_mixer): FeedForward(
              (w_1): Linear(in_features=256, out_features=1024, bias=True)
              (w_2): Linear(in_features=1024, out_features=256, bias=True)
              (activation): LeakyReLU(negative_slope=0.01)
              (LayerNorm): LayerNorm((256,), eps=1e-12, elementwise_affine=True)
              (dropout): Dropout(p=0.2, inplace=False)
            )
            (drop_path): DropPath(drop_prob=0.100)
          )
        )
        (norm_f): LayerNorm((256,), eps=1e-05, elementwise_affine=True)
        (drop_out_in_block): Identity()
        (importance_predictor): Sequential(
          (0): Linear(in_features=256, out_features=64, bias=True)
          (1): ReLU()
          (2): Linear(in_features=64, out_features=1, bias=True)
          (3): Sigmoid()
        )
      )
      (gtu_fusion): MultiGTUFusion(
        (item_proj): Linear(in_features=256, out_features=256, bias=True)
        (img_proj): Linear(in_features=256, out_features=256, bias=True)
        (text_proj): Linear(in_features=256, out_features=256, bias=True)
        (gtu): GTU(
          (tanh): Tanh()
          (sigmoid): Sigmoid()
          (con2out): Conv2d(256, 512, kernel_size=(1, 3), stride=(1, 1))
        )
        (gtu2): GTU(
          (tanh): Tanh()
          (sigmoid): Sigmoid()
          (con2out): Conv2d(256, 512, kernel_size=(1, 5), stride=(1, 1))
        )
        (gtu3): GTU(
          (tanh): Tanh()
          (sigmoid): Sigmoid()
          (con2out): Conv2d(256, 512, kernel_size=(1, 7), stride=(1, 1))
        )
        (align_proj1): Linear(in_features=256, out_features=256, bias=True)
        (align_proj2): Linear(in_features=256, out_features=256, bias=True)
        (align_proj3): Linear(in_features=256, out_features=256, bias=True)
        (time_encoder): Sequential(
          (0): Linear(in_features=1, out_features=256, bias=True)
          (1): ReLU()
          (2): Linear(in_features=256, out_features=256, bias=True)
        )
        (gate_network): Sequential(
          (0): Linear(in_features=512, out_features=256, bias=True)
          (1): ReLU()
          (2): Dropout(p=0.1, inplace=False)
          (3): Linear(in_features=256, out_features=3, bias=True)
          (4): Softmax(dim=-1)
        )
        (norm): LayerNorm((256,), eps=1e-05, elementwise_affine=True)
      )
      (forward_ssd): Mamba2(
        (in_proj): Linear(in_features=256, out_features=1184, bias=False)
        (conv1d): Conv1d(640, 640, kernel_size=(4,), stride=(1,), padding=(3,), groups=640)
        (act): SiLU()
        (norm): RMSNorm()
        (out_proj): Linear(in_features=512, out_features=256, bias=False)
      )
    )
  )
  (loss_fct): CrossEntropyLoss()
)
Trainable parameters: 20137660
Thu 05 Mar 2026 17:38:38 INFO  epoch 0 training [time: 27.28s, train loss: 1183.3013]
Thu 05 Mar 2026 17:38:39 INFO  epoch 0 evaluating [time: 0.90s, valid_score: 0.006500]
Thu 05 Mar 2026 17:38:39 INFO  valid result: 
ndcg@10 : 0.0065    ndcg@20 : 0.0094    mrr@10 : 0.0044    mrr@20 : 0.0052    hit@10 : 0.0137    hit@20 : 0.0248
…
